fnapprox-untrained.pth (torch, 17234 bytes, 10 tensors)

linear_relu_stack.0.weight f4 [31, 6]
00000000: 0b68 bd3d ee03 c83e d8ce aa3e 68cc 9c3e
00000010: d73f 213e fd3e c0bd b20a ca3e c9d3 9cbe
00000020: d942 a93d 3911 72be 349e 963d 6ce9 c6bd
00000030: f311 333e e9d9 8ebe 836c cc3e 41ed cdbe
00000040: 1bd4 fc3c 6640 8a3e de27 933e 26ff 723d
00000050: 0806 a13e c118 c0bd 0ccf 8fbe 767d 213e
00000060: 6a37 923e b74a 8abe 77bf 9a3e 34a8 65bd
00000070: 641b 173e b0c5 17be 8f00 cc3e 56f7 aebd
00000080: ef44 cbbe 904e 9cbe 313c 5a3e 0531 c4be
00000090: 6d59 c3be 8ad2 a43e 98a4 6b3e 3957 41be
000000a0: fd28 573e bfd9 81be 82e0 bb3e bcdb 87be
000000b0: 6803 833d 6ada 02be 5059 863e 0656 92be
000000c0: 9a47 093e 0600 d03e 3450 48be a31e 833e
000000d0: 38a1 c33e bc47 85be 5096 5cbe c851 833e
000000e0: 1d20 963e 8ae6 26be 0f7c c53d fb1f 91be
000000f0: b1ef 5f3e b66c 433e deec ac3e 5ac0 a7bd
00000100: 2de6 b4bd d992 5cbe aa34 ff3d afc1 5fbe
00000110: c060 9ebd 6841 a6be 4fe6 54be b942 92be
00000120: ba47 a33e a1f0 80be b3b0 c1be 8eff 543e
00000130: 0552 16be 7422 a63e b9fc 833e ff0e 7dbe
00000140: ac1f b63d c0e3 41bc e08e 8ebe b1ca cc3e
00000150: 2f0b 1bbe 80f2 91be 212c c93e 3ec7 833c
00000160: 0571 813d de90 613e b698 b6be 96ea d0bd
00000170: f5e1 81bd 5d2a 32bd 3bfa be3e 11ce 1bbe
00000180: 3646 053e dea5 b73e 7b51 c23e dd57 61be
00000190: b927 9fbb 0f85 a03e 832d 8ebe 183c 6e3d
000001a0: 0d0a b53d 4def 533e 1849 7cbe 79bf 963d
000001b0: 2362 bb3e 3658 16be c72e 1e3e e6b9 1e3e
000001c0: 68e4 c33e 72f3 013e 199b 93be 9d65 6c3e
000001d0: c681 7f3a 4e19 b63e 9ffa 4c3c 10a3 30be
000001e0: 8f4a 3f3e 0982 b63e 3067 a3be 5a19 b0be
000001f0: 9f20 b23e b065 893e be48 0a3e 435c 9ebe
00000200: 2d88 3e3e 8e11 5b3e 3f06 293e cb4d 71bd
00000210: 7d34 a6bb f746 323e 9b69 8b3d a9b9 3e3e
00000220: c60a 3ebe f9a1 a2bd bb73 60bd 4ea9 13be
00000230: 6d97 703e 63e5 4e3e 53cd e33c 5bd0 ac3e
00000240: 0627 3cbe da45 aebe 90d4 c0bc 8ab7 8bbe
00000250: 686f 43bd 5992 6cbc 7944 f83a 2009 22be
00000260: 2512 39bc d959 6c3e 58f7 e13d 82c9 91be
00000270: bdc1 95be d0cd 3ebe 4b2f 97be 8ca7 7a3e
00000280: d5dd 813e 82c5 a23d b203 ae3e b5e9 563d
00000290: f8f0 c2bd e271 c2bd aaf4 243e 9af2 c4be
000002a0: 019c 28be 28de a4bd dac6 7bbd fb00 e73d
000002b0: 6f2b 29be 084d d63d a762 283e 723a 4a3e
000002c0: 977e 353e b823 f0bd e39b 4ebe 291c a13e
000002d0: 23dc 803e cede 943e 8088 593e d82f cebd
000002e0: e32e ad3e 1b0c d03d
0.0924836 0.39065498 0.33360934 0.306247 0.15747009 -0.09387014 0.39461285 -0.3063033
0.08264703 -0.23639382 0.073543936 -0.097124904 0.17487316 -0.27900627 0.39926538 -0.40220073
0.030862859 0.27002257 0.28741354 0.05932536 0.31449914 -0.093797214 -0.28087652 0.15770516
0.28557903 -0.27010128 0.302242 -0.056068614 0.14756542 -0.14821506 0.39844176 -0.08543269
-0.3970103 -0.30528688 0.21312024 -0.3831865 -0.38154164 0.3219188 0.23012006 -0.18880929
0.2101173 -0.2536144 0.36694723 -0.26534832 0.06397134 -0.12778631 0.26240015 -0.28581256
0.1340622 0.40625018 -0.19561845 0.2560931 0.38208938 -0.2603129 -0.21541715 0.25648332
0.29321375 -0.16298881 0.09642803 -0.28344712 0.21868779 0.19084439 0.33774465 -0.08190985
-0.08832965 -0.21540393 0.12461217 -0.21851228 -0.07733297 -0.32471776 -0.20790981 -0.2856653
0.3189066 -0.25183585 -0.37830123 0.20800611 -0.14679725 0.3244816 0.2577875 -0.24712752
0.0889276 -0.011834085 -0.2784338 0.3999839 -0.15140985 -0.28505325 0.3929148 0.016086217
0.06320385 0.22027919 -0.35663384 -0.10200994 -0.06341926 -0.043497432 0.37300286 -0.15215327
0.13015065 0.35868734 0.3795279 -0.22006173 -0.00485703 0.31351516 -0.27769098 0.05816278
0.08839808 0.20696755 -0.24637258 0.07360739 0.3659831 -0.14682087 0.15447532 0.15500602
0.38260198 0.12690523 -0.28829268 0.23085637 0.0009746816 0.3556618 0.012510925 -0.17249703
0.18680786 0.35646084 -0.31914663 -0.34394342 0.34790513 0.26835394 0.13504311 -0.30929765
0.18606634 0.21393415 0.16506289 -0.05891208 -0.005072175 0.17409883 0.06807252 0.18625511
-0.18558797 -0.0794105 -0.05479787 -0.14420053 0.23495264 0.20204692 0.027807867 0.33752713
-0.18374261 -0.34037668 -0.023538858 -0.27288467 -0.047713667 -0.014439189 0.0018941305 -0.15823793
-0.01129583 0.23081149 0.11033505 -0.2847405 -0.29249373 -0.18633199 -0.2952827 0.24477977
0.25364557 0.07947828 0.33987194 0.052468974 -0.095186174 -0.09494378 0.16108957 -0.3846634
-0.16465761 -0.080501854 -0.061468937 0.11279484 -0.16520475 0.10463911 0.16443883 0.19748858
0.17724071 -0.11725563 -0.20176654 0.31466797 0.2516795 0.29076236 0.21243477 -0.10067719
0.33824834 0.10158559

linear_relu_stack.0.bias f4 [31]
00000000: a79f 573e 63aa 98be f004 06be 8c69 aa3d
00000010: 65ff 71bd eeb3 3c3e ab1d b83e 923a 5b3e
00000020: b0ec 94be 4c9d 493e b5e1 aa3e 248f 5cbd
00000030: c41b d4bd 484a 933d 6222 89be c27a 373e
00000040: 5bba 89bd ce2f 12be 0163 2f3e 027b d5bd
00000050: d5db 44bd 2bc4 ba3e dceb 9ebe 0728 b7be
00000060: eb2d 55bc 980f 94be c4eb e0bd b467 05be
00000070: 01ed c53d 9068 96be 406d a3be
0.21056996 -0.29817495 -0.13087821 0.08320913 -0.059081454 0.18428013 0.35960135 0.21409062
-0.29086828 0.1968891 0.33375326 -0.053847447 -0.103568584 0.071919024 -0.26784045 0.17917922
-0.067249976 -0.14276049 0.1712761 -0.104238525 -0.04806121 0.3647779 -0.3103932 -0.35772726
-0.013011436 -0.28918147 -0.10982469 -0.13027841 0.096643455 -0.2937665 -0.3191929

linear_relu_stack.2.weight f4 [31, 31]
00000000: 0597 2bbe 7a79 e23d 3bf0 143e 00a8 a53d
00000010: a1a2 763d ed35 373e e765 0ebc ce94 35bd
00000020: fb54 9ebd 538f 983d b804 22be 7898 f43d
00000030: 3afc 36bd da2e a73d a971 42bd df1d c4bd
00000040: c355 c83d eaee 90bc e7b3 0c3c 376d e83c
00000050: 7b19 1d3e 3dfe eabc b8e5 d5bd 55f5 5b3d
00000060: 96cc 3cbd fe28 fd3d eddf 57bd ca7a ee3d
00000070: de60 143e 9546 e63c 1e12 023e 5c10 6bbd
00000080: 052b 2abe 506c f23d d96e 2dbe db7e 46bc
00000090: 21d6 e23d 30c5 cc3d 8f27 e5bc 2357 2d3d
000000a0: 919e 2d3e 54b1 1c3e df16 1d3c 41d8 2f3b
000000b0: c80f 0e3d 19c1 893c 9b23 213e 3bbe 36bd
000000c0: cafa d13d d4c7 ee3d dc25 493d 3d10 f1bc
000000d0: 2c50 323e 5ee7 10be 0b14 273e a9a7 893d
000000e0: 0f96 28be df7b 4e3d ae36 893d 4447 7fbc
000000f0: ee78 123e ed6d 883d c1a3 e2bc ffca 6fbd
00000100: 08b2 eabd 975d 2c3e fd27 e53d 5b9f 073d
00000110: 1dc0 0f3e 47af 193e 1f3f 7f3c 7ce9 61bc
00000120: 023a 31be b396 00be 349b 85bd 0f0e 48bd
00000130: 45db 343e 76c6 1d3e 6148 ae3c 2c07 07bc
00000140: 39e6 b7bd c603 b43a 980e d73c 261a a83c
00000150: 4dcd cf3d 7cf2 b63c e081 ed3d ec4f 2a3e
00000160: b44c 5dbd 6a40 2f3e 4f55 f23d 6027 13bd
00000170: 8422 e7bc 48b0 adbd caa9 33be 7403 dabd
00000180: 0846 8ebd d356 843c df34 01be ee09 35be
00000190: a0f2 273e 9d01 11be a1b5 013e fd69 18be
000001a0: 5f28 bf3d 0165 cabd dc5b 2d3d 5e84 3fbd
000001b0: 0d18 803b 05d5 243d f56d 003e a3c1 2cbe
000001c0: 2eed 233e 7d96 073e bddc 93bd 8d7c 9d3d
000001d0: 1c73 49bd 27aa 05be 7adb cabd 0905 063d
000001e0: 32ea 6c3d 9943 a13d 647f 643c fc71 063d
000001f0: 4b57 37be 4bda c6bd 76d8 093e 6425 343e
00000200: b18d 0abe 5970 af3d 3dcf 0d3e 22dc 23be
00000210: 3a5c 16be 4ea9 1b3e bdbe e1bd 6ab4 2a3e
00000220: b9ba 63bd 13a2 43bc edac 13be dacc 13be
00000230: 63b4 9f3d 261a d9bd 0f8c b53b caae 2dbe
00000240: 946e d53d de17 493d 4a43 cbbd 6d94 6abc
00000250: c183 85bd bd6c 3abc 25f8 093e 4663 533d
00000260: 29d0 353c dc02 0d3d fc23 98bd 0cbc bbbd
00000270: 6e74 d4bd 6369 1e3e 811a b83b fcf9 e1bd
00000280: ae86 ec3d 7948 9f3d ff00 afbd 66f9 2cbc
00000290: 853e a4bd fd9a 0fbd 229b 943d 24b9 f93d
000002a0: 5381 413d c2fe 40bd e5a6 223e 551c 1b3c
000002b0: 133e 09be d5e4 f73d 5b92 213d fdbc 41bd
000002c0: aacb 0a3e f00b 273e 7cd2 3f3d 0899 58bd
000002d0: 79d6 873d 6052 fcbc 6946 0e3e 144a b4bd
000002e0: e1f8 97bd 0d98 3d3d 34d0 253e cb99 84bd
000002f0: f9ee e5bd a5de 2fbd 14b7 a1bd 954c 5b3c
00000300: f290 5c3a b906 10be 09cb a6bc 152c 23be
00000310: 7327 27be bcce 84bd 88d9 2e3d 96ca 3d3c
00000320: b1e5 90bd 4196 273d 3c9e c43d 5e5a 31be
00000330: 24ae 7dbd 3483 fa3d 0eb0 44bd 8890 37be
00000340: 79d5 de3d 0ec6 f2bd 1d6c 0e3d 1386 abbd
00000350: 6737 09be 7ea4 2bbe 6121 f8bd fc30 153e
00000360: f6aa ccbd fce8 1c3e cb9f 06be 2c86 893d
00000370: 9a1b bb3d 854f ecbd bb7d 99bc 584f 833d
00000380: 2315 773d ea37 d9bd 0bc5 8a3c a916 493c
00000390: 1928 f03c 4dd7 cd3d 14c6 133e 28d8 353e
000003a0: 4ca1 0f3d 2617 263e 2613 aebd 4a14 edbd
000003b0: 5a5b 13be 9fca 3b3d d3c0 9d3c 5f36 3a3d
000003c0: 4d02 2c3e addb 013c 584d 31be e7b7 863d
000003d0: 574b c9bd 1b3e 10bc d090 0c3e abb8 133e
000003e0: 6e0e 2e3e 0bd1 9a3c 862c 6fbd cae9 8e3d
000003f0: a873 3dbd a8fb d4bc f6a6 283e d139 633d
-0.16756828 0.11058326 0.14544766 0.08088684 0.06021369 0.17891665 -0.008691288 -0.044331364
-0.077310525 0.07449212 -0.15822113 0.119431436 -0.044674136 0.08163233 -0.047471676 -0.0957601
0.09781983 -0.017692048 0.008587814 0.02837239 0.15341751 -0.028685683 -0.10444206 0.053700764
-0.046093546 0.12361334 -0.052703787 0.11644514 0.14490077 0.028109828 0.12702224 -0.05738865
-0.16617973 0.11837065 -0.16936816 -0.012115206 0.11075998 0.09998548 -0.027972965 0.04231943
0.1695502 0.1530202 0.009587972 0.0026831778 0.03468302 0.016815709 0.15736239 -0.04461501
0.10252912 0.11659208 0.04910837 -0.029426688 0.17413396 -0.1415076 0.1631624 0.06721432
-0.16463493 0.0504111 0.066998824 -0.015580956 0.14303944 0.06661592 -0.027665975 -0.0585432
-0.11459738 0.16832577 0.11189268 0.033110958 0.14038129 0.15008269 0.015579014 -0.013788577
-0.17307284 -0.12557487 -0.06523743 -0.048841532 0.1766177 0.15407738 0.021274747 -0.008241456
-0.08979458 0.0013734035 0.026252076 0.020520281 0.1014658 0.022332422 0.11597037 0.1663205
-0.054028228 0.17114416 0.118326776 -0.035926223 -0.0282147 -0.084808886 -0.17545238 -0.1064519
-0.06946951 0.016154682 -0.12617825 -0.17679569 0.16401148 -0.14160772 0.12666942 -0.14884181
0.09333872 -0.09882546 0.042323932 -0.046757095 0.003909117 0.040242214 0.12541945 -0.16870742
0.16008446 0.13241 -0.07219837 0.07689772 -0.049182042 -0.13053189 -0.09905143 0.032719646
0.057840534 0.07874221 0.013946388 0.032823548 -0.17904393 -0.09709605 0.1346148 0.17592388
-0.13530613 0.085663505 0.13848586 -0.16001943 -0.14683619 0.15201303 -0.110227086 0.16670385
-0.055597994 -0.011940497 -0.14421435 -0.14433613 0.07798078 -0.106006905 0.005540378 -0.16961208
0.10421482 0.049095027 -0.09924944 -0.014317614 -0.06519271 -0.011378464 0.13473566 0.051608346
0.0110969925 0.034426555 -0.074287385 -0.091667265 -0.1037377 0.1546989 0.005618394 -0.11034009
0.115491256 0.07777495 -0.08545112 -0.010557508 -0.08019737 -0.035059918 0.07256152 0.12193516
0.047242474 -0.047117956 0.15883978 0.009467204 -0.13402586 0.12104193 0.039446216 -0.047299374
0.13554254 0.16313148 0.046831593 -0.052880317 0.06632704 -0.030800998 0.13894047 -0.08803192
-0.07420517 0.046287585 0.16192704 -0.06474646 -0.11227221 -0.04293694 -0.078962475 0.013384958
0.00084139325 -0.14065064 -0.020360487 -0.15934785 -0.16323642 -0.06484744 0.042687923 0.011583945
-0.0707506 0.040914778 0.09600493 -0.17319629 -0.06193365 0.12232056 -0.04801946 -0.17926228
0.108805604 -0.11854182 0.034771074 -0.08375182 -0.1340004 -0.16761968 -0.121157415 0.14569467
-0.09993546 0.15323251 -0.13146894 0.067150444 0.09136124 -0.11538605 -0.01873671 0.06411618
0.060322892 -0.10606368 0.01693966 0.012273469 0.029315995 0.10050831 0.1443103 0.17758238
0.035065934 0.16219768 -0.08499746 -0.115761355 -0.14390317 0.04584753 0.019256985 0.04546201
0.16797753 0.00792591 -0.1731466 0.06578045 -0.09828823 -0.00880387 0.13727117 0.14425914
0.16997692 0.018898508 -0.05839207 0.069781855 -0.046252877 -0.025998905 0.1646994 0.05547506

linear_relu_stack.2.bias f4 [31]
00000000: b3c1 cabd 6059 b1bd f908 6d3c ddc5 bb3d
00000010: 822c ec3d bfdf eabd a005 29bc 9fa0 06be
00000020: dbe4 4ebd 4ae4 183e 08af f63b 3b2d bc3d
00000030: f2a5 e23d c5ca 14be 8ace 8a3d 89cd ccbd
00000040: 91bf be3d a00b 45bd d839 cabd ef6b 9e3c
00000050: f9a5 f8bd 887d 11be ea0a 7fbd c1e6 7ebd
00000060: 27c7 053e cdd1 21be ea84 243e 2626 5dbd
00000070: 22ef 8d3d 6d0e 9e3d e956 f93c
-0.099002264 -0.08659625 0.014467471 0.09168599 0.11531927 -0.114684574 -0.0103162825 -0.1314721
-0.050511222 0.14930835 0.0075281896 0.091883145 0.11066808 -0.14530475 0.067776754 -0.1000014
0.09313882 -0.04810679 -0.09874314 0.019338576 -0.12141032 -0.14208043 -0.062266268 -0.062231783
0.13064252 -0.15802689 0.16066328 -0.05399146 0.069303766 0.07717595 0.03043695

linear_relu_stack.4.weight f4 [31, 31]
00000000: ecf4 24be a4e3 0cbe 276b b3bd 796e 523c
00000010: 1bcc d83d 121d 333e a293 633b ab66 d1bd
00000020: 2615 203e 05ba 1d3e 08d7 00be 3f43 3a3d
00000030: dc25 8d3c 8b32 1bbd 4eb6 05bd 0032 b1bd
00000040: 0152 91bc e16a 5fbd 0d25 ed3d 1ea4 44bc
00000050: c8c8 1abd 87bc 823c dc20 2a3e fcbc e93c
00000060: 4d31 ef3d 45d5 963c 6362 18be 4ac3 1a3e
00000070: d4f8 2b3e 4fe4 303e 1940 0abe 161f 0ebd
00000080: 6395 85bd 3a98 ecbc e706 f2bd 7d3a 123e
00000090: 2c83 d23c 2428 12bd fc50 b8bd e053 373e
000000a0: 6930 193c 32f0 023d ef42 3fbd 4b67 8e3c
000000b0: a4cf f33b 7d39 a7bd 072c 1a3e 36f0 1ebc
000000c0: 8bb2 d23c 152d b7bd 6ddd 313e c46b 363e
000000d0: 961c b3bd 5662 9a3d a7e8 233e 04ad d63d
000000e0: a648 0c3e 1602 36bd c6ed a1bc 46f6 acbd
000000f0: a3b3 15bd f962 1ebd b184 093e 9300 423d
00000100: 140d f23d 848e 5a3d 36f7 50bd b83b 013d
00000110: 75ed bb3c b4aa a9bd 5966 313e 0d08 053e
00000120: 8a0b 973b 87e1 20be 6c0c b23d dfc7 80bd
00000130: 5cdb e13c 7e89 72bd 1145 d7bc 6e8f f83d
00000140: 28cb 90bd 4a75 12be 779b 1dbd 18f0 693d
00000150: 3d3c 32be dcdd d13d 85a6 e03d 9101 9ebd
00000160: 0b18 a1bd 7086 07bd b704 0bbe d88a e13d
00000170: 1f15 b63d f377 bbbd 6243 99bd 2eba 1dbd
00000180: 31ac 16be 95e3 e1bd eb59 183e 5427 08bd
00000190: 3668 233e e8a1 c8bc 8b1e b0bd e710 1b3e
000001a0: c411 ff3d 0f65 02be 146a 31be a1fb f0bd
000001b0: 905c 24be 8543 8e3d 1863 f1bd 7418 1dbe
000001c0: 8a1c a73d 5142 28be 398f f43d b1e2 a2bd
000001d0: 96b2 973d 0c83 ac3d f945 20be cb81 543d
000001e0: 9f71 f73d ffa9 30be af57 d6bd 78a2 44bb
000001f0: a899 77bd aabe b53c add2 e5bd 0a53 a1bd
00000200: 30ed 18be 7976 9b3d c095 53bc 6c47 67bd
00000210: a284 9d3d 1a89 233e 5e7e 29be dc43 c13d
00000220: 129f 743d de46 bebd d005 a93d bc32 e23b
00000230: 0c56 183d e77c b6bd e868 0bbe e3f8 31be
00000240: 774f e0bd a6b2 2d3d c616 033e 1310 073d
00000250: fbe9 bbbd a8d5 873d d848 8abc ac6f 373d
00000260: e8c8 0cbe 686d 21bd 2138 893d c6e7 cfbd
00000270: 5dbf b03b 56cc 20be 836c f8bd 0980 3abd
00000280: efc8 be3d ce40 1cbe 5878 00bb 585d 1fbd
00000290: fa2f 753d 99bf d0bc 9bf8 b8bd 0c76 2c3e
000002a0: 13e8 2fbe b751 273e 0d96 cd3d 9533 38be
000002b0: 6ea4 bb3c e75c 733d 62c8 cdbd 7fc9 10be
000002c0: 35bc dbbd 23cb 033e 2e0a 6d3d 6958 86bd
000002d0: 1512 ac3c adef e63c d81c 30be 3927 273e
000002e0: 41f6 dd3d c5e5 293e e9b7 62bc 2db3 acbd
000002f0: bbde c8bd edb3 f0bd f95c 6dbd b224 0d3e
00000300: 7f6b 553c 2b6f 103e d59a 1d3e 6d3f afbc
00000310: 2e22 16be af08 a03d 214c 38bc 1e3e 803d
00000320: b024 223e 6819 2bbd ac11 db3d 30a1 f1bd
00000330: a289 273e e59d 33be dcce 92bd a817 d4bc
00000340: 6d28 963d 1a02 1c3e 8854 1abe b555 123e
00000350: 3e53 10be ff3b 16be 4903 b4bd 54d6 a3bd
00000360: 0048 08be 3236 11be 35b3 2d3e 85b9 c6bd
00000370: cf32 d13d 1b05 153e 10a0 d6bc 65f4 b13d
00000380: 0361 d83d aa26 713d 8fe3 a43d 5e55 d4bd
00000390: 973f c03d fda1 7dbd 4cf2 023d 4728 0b3d
000003a0: 4e21 f4bd 10d9 1dbe c1ef 9cbb 9138 e2bd
000003b0: cf84 90bd ca1a 143d 64a7 103e 44de ea3b
000003c0: 3b29 16bd 3e69 143e be6c e93c bb26 cd3d
000003d0: 66ba 313e 7c12 883d 9924 f2bd 446c 623d
000003e0: 12a1 eb3d b893 02be 538b 06bd 71de 7f3d
000003f0: 9bc6 9a3d ae20 aabc e4ca 943d fd8d 05bd
-0.16109055 -0.13758713 -0.08760672 0.012843722 0.10585805 0.17491558 0.0034725447 -0.102246605
0.15633067 0.15402992 -0.12582028 0.045474287 0.017229967 -0.03789 -0.032644562 -0.08652115
-0.017739298 -0.054545287 0.115793325 -0.012002019 -0.037789136 0.015959037 0.16614097 0.028532498
0.11679325 0.018412242 -0.14881282 0.1511356 0.16794139 0.17274593 -0.13501014 -0.034697615
-0.06522634 -0.028881181 -0.11817723 0.14280124 0.025697313 -0.035682812 -0.089998215 0.1790309
0.009349921 0.03196735 -0.046694692 0.017383238 0.007440524 -0.08165262 0.15055858 -0.009700825
0.025719902 -0.089441456 0.17369623 0.17814547 -0.08745687 0.07538287 0.16006719 0.10482219
0.13699588 -0.044435583 -0.0197667 -0.084454104 -0.036548268 -0.038668606 0.13429524 0.04736383
0.11818901 0.05335857 -0.05101701 0.031551093 0.022940377 -0.08284512 0.17324199 0.12991352
0.00460953 -0.15711032 0.086937755 -0.062881224 0.027570419 -0.059213154 -0.02627805 0.12136732
-0.07069999 -0.14302555 -0.03847834 0.057113737 -0.17405792 0.102473944 0.10969261 -0.077151425
-0.07865914 -0.033087194 -0.13576017 0.110128105 0.08890747 -0.09153738 -0.074835554 -0.038507633
-0.14714123 -0.11029736 0.14878051 -0.03324063 0.15957722 -0.024491265 -0.085995756 0.15143166
0.124545604 -0.12733863 -0.17325622 -0.117667444 -0.16050935 0.06946472 -0.11786479 -0.1534136
0.0815974 -0.16431548 0.1194138 -0.07953394 0.074071094 0.08423433 -0.15651692 0.051881593
0.120822184 -0.17252348 -0.10465943 -0.0030004065 -0.060449272 0.022185642 -0.11221824 -0.078771666
-0.1493423 0.07590956 -0.012914121 -0.056464598 0.07691313 0.15970269 -0.16552112 0.09436771
0.059722014 -0.092908606 0.08253062 0.0069030207 0.037191436 -0.08910542 -0.13614237 -0.17380099
-0.10952657 0.0424067 0.12801656 0.032974314 -0.091754876 0.066325486 -0.016880438 0.044784233
-0.13748515 -0.03941098 0.06700159 -0.10151629 0.005393906 -0.15702948 -0.12130072 -0.04553226
0.09315669 -0.15259096 -0.001960298 -0.03890738 0.059860207 -0.025481986 -0.09031793 0.16841906
-0.17178373 0.16339765 0.100383855 -0.17988427 0.022905555 0.05941477 -0.100479856 -0.14139365
-0.10729257 0.1287046 0.057871036 -0.06559832 0.021004716 0.028190458 -0.17198503 0.16323556
0.10837985 0.16591556 -0.013837793 -0.084326126 -0.098081075 -0.11753068 -0.057949994 0.1378353
0.013026117 0.14104907 0.15391095 -0.021392548 -0.14661476 0.07814156 -0.011248619 0.06261848
0.15834308 -0.041772276 0.1069673 -0.11798322 0.16361097 -0.175407 -0.071683615 -0.025890186
0.07331929 0.15235177 -0.15071309 0.14290507 -0.14094254 -0.14671324 -0.08789689 -0.07999864
-0.13308716 -0.1418083 0.16962893 -0.09703354 0.10214769 0.14552729 -0.02619937 0.08689193
0.105653785 0.058874764 0.08051216 -0.10367845 0.09387129 -0.061922062 0.031969354 0.03397396
-0.11920415 -0.15414834 -0.004789323 -0.110459454 -0.07056581 0.03615836 0.14126354 0.0071676094
-0.036660414 0.14493272 0.028494235 0.10017153 0.17356262 0.066441506 -0.11823387 0.05527903
0.11505331 -0.12751663 -0.032847714 0.062467996 0.07557412 -0.020767536 0.07265261 -0.032606114

linear_relu_stack.4.bias f4 [31]
00000000: 9aa8 01be 7cb1 e53d d0f1 b1bd 2c1a 323e
00000010: fd11 10be 0bf6 12bd 0523 db3d d379 96bd
00000020: f2b6 213e 7bd4 cebd 87da e83d 168b e9bd
00000030: 4430 f63d e681 17be a826 523d 5efb 2b3c
00000040: 5aa6 e1bd d8ca 4e3d 2ea5 c43c 1b9f 8f3c
00000050: 861e 83bd d826 2ebe 0465 e73c 5961 83bd
00000060: 5c20 d83d c51b 2ebb bf2e 80bd 4c30 96bd
00000070: 0cfa 45bd 2fc2 853d 3b27 99bd
-0.12661973 0.11215493 -0.086887 0.17392796 -0.14069362 -0.035879176 0.10700039 -0.07347455
0.15792444 -0.10099121 0.11369806 -0.11403482 0.12020925 -0.14795646 0.051306397 0.010496942
-0.11018057 0.050486416 0.024004545 0.017531922 -0.06402306 -0.17007005 0.02824641 -0.06415052
0.10553047 -0.0026566845 -0.06258916 -0.07333431 -0.048334166 0.06531178 -0.07478186

linear_relu_stack.6.weight f4 [31, 31]
00000000: 064d af3d 2ab2 c63d 80c7 13bd 8df4 bd3d
00000010: cae6 fa3d 8ddb 86bd af72 c63d dd9d eebd
00000020: 5465 3b3d e65e b73d 3823 2dbe 530d 1d3d
00000030: efb8 73bd 9348 26be f34c 0bbe 8beb 83bc
00000040: 2d5d c33d fdf7 c7bd 56c8 263d 91ea 8e3d
00000050: 906f e1bc 093c 28be f9c7 033e 4bed ec3d
00000060: 1303 9f3c 3331 10bd 7989 073e 21eb 873c
00000070: 87cc 36be 8653 06be 347d 3fbd a8b0 413d
00000080: 71fa 0cbe 7397 2abd 6d62 a13d 38be c9bd
00000090: 7049 a0bd 2c9c b7bc 698f d4bd c502 89bd
000000a0: 1d42 41bb 1b7f 203e 38e1 bc3d 3e1e b13d
000000b0: 42b2 9d3d 0206 acbd d6a2 a2bd d8fb f5bd
000000c0: 86f7 30bd 611d b93d 8b67 763c e337 16bc
000000d0: d01e a73d b25d b83d 8731 23bc e37c 1dbd
000000e0: fcdd 783c bab0 00be 98ca 1b3c 86fd aebd
000000f0: d2bc 343e f2a6 07be 9147 86bd 3b5f 663d
00000100: 3ff8 563d 2b71 063d f7b2 243e 1bd2 edbc
00000110: d463 123d 04af c63d ca1e e03d d892 60bd
00000120: f2ea 993d 25a3 673c 70e9 0bbe 7a8f b63d
00000130: 8c66 cb3d 31e7 f0bd c381 213e d272 e1bc
00000140: 5671 12bc f53c 533c 9c6c bebd 6f24 d43d
00000150: fb50 f5bd a173 233e 9222 1ebe 4eb0 013d
00000160: 5fad 143e c712 0ebe 9cba 26be d7d1 1d3e
00000170: 472e 17be 20d3 343c f9f1 8a3d 30b2 ca3d
00000180: 1c34 153e df61 34be 246e ae3d d5e3 83bd
00000190: cca3 0cbe d8f7 223e e2e4 0c3e 6ff9 92bd
000001a0: a903 1b3e 8d7b e53d c30a 163d c427 e63c
000001b0: 8ed8 073e a8ef 06be 8074 5c3d c181 b5bd
000001c0: 4945 233e 2a9c b4bc 0883 8cbc c6c1 363e
000001d0: 026f 17be 4b28 053d 838f 9a3d b8ac 0a3e
000001e0: 40fb 693c 1ed8 a6bd d41b 563d e84c 28be
000001f0: eebd 053e 8520 0ebd 76c9 2cbe 873c aebd
00000200: cb4d f7bd f6a9 073e 5f4f c9bd 5ef8 183e
00000210: bce0 c2bc 8dd0 923d fbfb c6bd c6f7 f53c
00000220: f6fa 2c3e b9f2 103e 8a24 363d 2895 1c3d
00000230: ec7a ac3c 9300 3c3d 9c83 a5bc 8703 34be
00000240: 18de 73bd eb3b 0fbd 9829 8ebd a763 323e
00000250: 1495 d1bd 1c42 2cbe 0ecc acbc 57ec db3d
00000260: f4cc 2fbc 0e9f 9ebc 779e 003e 5e32 e73d
00000270: 1d1c 01be 11d7 153e 2ebb ba3d 138f 8f3d
00000280: 2816 2fbe b1ce 00bd b00a 793d edc0 213e
00000290: 1efb 24be d785 893a 136c 10be ddb9 1bbb
000002a0: 3b5c a7bd 2531 543d b1c9 b63d a614 e33d
000002b0: c565 083e 58ae c8bd b0df e9bd dff9 1e3e
000002c0: f07b 253e b347 10be ce46 893d ea67 29be
000002d0: 5865 b83d 6f3b e53d 45b4 15be 9969 b4bd
000002e0: 8b2a dbbd bfe8 0b3d 9d34 d2bd ba64 a4bd
000002f0: d8dd 133e 3046 d1bd 9cca e0bc 15e6 2abe
00000300: e580 0fbe 4d67 35be 0df7 303e a44a 0dbe
00000310: bf6b 033d 18b3 083d 61ba 083e f366 fd3d
00000320: e66f e1bd 0984 2c3e b1a7 2b3e 7991 a03d
00000330: 8585 a53b e649 ffbd 9c98 a63c bedb 1f3c
00000340: 82d6 c33d b5fc 253d 17c5 7a3d f406 473d
00000350: 4cb3 833d 4632 22be 0051 d3bd 8456 223e
00000360: 4a23 a1bc 910f 28bd d43f 073d 6582 97bd
00000370: ae15 9f3d 8f6f 0e3e 1e33 2a3a 5b09 ecbb
00000380: 6376 033e c157 3abd f2f2 473d 852b c93c
00000390: f7c4 20bd dde8 9e3c 6e32 20ba 2670 90bd
000003a0: ddac cabd 9790 6c3c 8828 56bd c544 21be
000003b0: 439e 083e be47 debd 0dac 22be 8469 2c3e
000003c0: e7a2 023d f9da 083e 866e 133e 8250 933d
000003d0: 0837 cb3d 5934 35be 65b2 993d 8b43 4f3c
000003e0: 4f34 f8bd 1ffc e43c 6064 543d fecb 07be
000003f0: 5b41 a4bc 54d8 bc3d 71c8 e6bc e324 223d
0.08559613 0.09701951 -0.03607893 0.0927516 0.12251051 -0.06584845 0.09689843 -0.11651204
0.04575093 0.08953647 -0.16907966 0.038342785 -0.05950254 -0.16238622 -0.13603573 -0.016103527
0.09539256 -0.09764097 0.0407184 0.06978334 -0.027519017 -0.16429152 0.12869252 0.115686975
0.019410646 -0.03520317 0.13236035 0.01659161 -0.17851458 -0.13117799 -0.046750262 0.047287613
-0.13767411 -0.04164834 0.07880101 -0.098507345 -0.07826507 -0.022413336 -0.10378916 -0.06689981
-0.002948887 0.15673487 0.092226446 0.08648346 0.077000156 -0.083995834 -0.07941215 -0.12010926
-0.043204807 0.09038807 0.015039335 -0.009168598 0.08160174 0.09002246 -0.009960539 -0.03844918
0.015189644 -0.12567416 0.009508751 -0.085444495 0.17650154 -0.13247278 -0.06556619 0.056243163
0.05248284 0.03282277 0.16083895 -0.02903085 0.035739735 0.0970135 0.109433725 -0.05482754
0.075155154 0.014138018 -0.13663268 0.08914085 0.09931669 -0.11762846 0.15772156 -0.02752057
-0.008938154 0.012892951 -0.09298059 0.10358512 -0.119783364 0.15962078 -0.15442875 0.031662278
0.14519261 -0.1387435 -0.16282123 0.15412079 -0.14763747 0.011036664 0.06784434 0.09897268
0.1457066 -0.1761546 0.085171014 -0.0643994 -0.13734359 0.15914857 0.13759187 -0.07176482
0.15138115 0.11205206 0.036631357 0.028095134 0.13266203 -0.13177359 0.05382204 -0.08862639
0.15944399 -0.022047121 -0.017152324 0.17847356 -0.1478844 0.03250913 0.07546904 0.1354245
0.014281094 -0.0814669 0.052272633 -0.16435587 0.13060734 -0.03469898 -0.16873726 -0.085076384
-0.12075385 0.13248429 -0.09829592 0.14938495 -0.023788802 0.07168684 -0.0971603 0.030025374
0.16892609 0.14155091 0.04446844 0.038228184 0.021054707 0.045898985 -0.020204358 -0.1757947
-0.059537977 -0.03496925 -0.06941527 0.17420827 -0.102335125 -0.16822094 -0.021093395 0.107384376
-0.010730017 -0.019362953 0.1256045 0.11288904 -0.1260838 0.14632823 0.09117733 0.07009711
-0.17098296 -0.031447116 0.060801208 0.15796252 -0.16111419 0.0010492158 -0.14103727 -0.0023761906
-0.081718884 0.05180468 0.08925188 0.11087923 0.13320072 -0.097988784 -0.11419618 0.15525006
0.1616056 -0.14089851 0.06702958 -0.16543546 0.09003705 0.11192977 -0.14619549 -0.08809204
-0.10701474 0.03415751 -0.102639414 -0.080270246 0.14440095 -0.10218465 -0.027440362 -0.16689332
-0.14014013 -0.17715187 0.17281742 -0.13798004 0.032085177 0.033373922 0.13352348 0.12373152
-0.11007671 0.16847242 0.16763188 0.07840247 0.005051317 -0.12465267 0.020336442 0.00975698
0.095623985 0.040524203 0.061223116 0.048590615 0.064306825 -0.1583949 -0.10318184 0.15853316
-0.019670147 -0.04103047 0.033019856 -0.07397918 0.07767807 0.13909744 0.00064926024 -0.0072032637
0.1283813 -0.045493845 0.048815675 0.024556885 -0.03925034 0.019398147 -0.000611103 -0.070526406
-0.09896252 0.01443877 -0.052284747 -0.1574889 0.13341622 -0.108535275 -0.15885945 0.16837126
0.031893637 0.13364781 0.1439763 0.0719309 0.09922606 -0.1769575 0.07504729 0.012650381
-0.12119352 0.027952252 0.051853538 -0.1326141 -0.020050695 0.09220949 -0.02817175 0.03958596

linear_relu_stack.6.bias f4 [31]
00000000: c56a 2e3e 6320 0b3d 90a9 683d 412b 35be
00000010: 370c 323e cb4a 043e 3c63 323e 65d2 b7bd
00000020: 5734 43bd de3f 893d 2f23 543d a14c 933d
00000030: fa48 ae3d f5b8 eebd 9039 2a3e b0ba 80bd
00000040: c017 2a3e 8d88 2fbe 3202 9dbd a718 55bc
00000050: 0e70 03be 42e2 6f3d a80c 82bd b8b1 15bd
00000060: fa31 9abd 2621 54bd 8bab bfbd a7c9 20be
00000070: 7f85 48ba abc6 0c3e fdba b13d
0.17032917 0.033966433 0.056802332 -0.17692281 0.17387472 0.12919156 0.17420667 -0.089756764
-0.047657337 0.06701635 0.051791366 0.0719235 0.08510013 -0.116563715 0.16623521 -0.06285608
0.16610622 -0.17141934 -0.07666434 -0.013006366 -0.12835714 0.058565386 -0.0635007 -0.03654644
-0.075290635 -0.051789425 -0.09358891 -0.15701924 -0.0007649287 0.13747661 0.08678243

linear_relu_stack.8.weight f4 [2, 31]
00000000: be94 f13d 93c7 013d 0f46 e2bc 8059 18be
00000010: e412 f9bd 5b1f 753d 0167 d1bd 52f8 163e
00000020: 4bf1 c3bd 741e 233e 6b25 ae3d 1e2f 3cbc
00000030: 0b62 f1bd d9f3 18be cb99 1c3d 10b4 2b3d
00000040: c965 403c 3f97 d4bd 6b7c d8bd a7f3 23be
00000050: 3c4e 1e3e 7ac6 7f3d 5496 0c3d c7a4 b8bd
00000060: 4a00 a1bd 57a1 6c3d a6e0 ab3d 84aa eabd
00000070: c1b1 a73c 4c8b d6b9 8567 07be e1c7 843d
00000080: 3510 ab3d 7ceb dfbc 5857 2fbe 4a39 31be
00000090: f46b 88bd 9440 76bd 6b8a b03d 0369 c8bd
000000a0: f59e 713d 2397 a4bd fbee 46bd d6b8 b9bd
000000b0: f248 9b3d b368 0bbe 6e38 06be cd82 2dbe
000000c0: 8072 323b 1804 503d b7bc c7bd f802 f63c
000000d0: ae6f c4bc a773 b3bd 1b06 df3d 492d cdbd
000000e0: 8362 c43d 5b9d 243b c0ab 5a3b e3e5 bcbd
000000f0: 9325 9fbd ea13 31bd
0.117959484 0.03168447 -0.027621297 -0.14877892 -0.12161806 0.059844356 -0.102247246 0.14743164
-0.09567507 0.15929586 0.08503231 -0.011485843 -0.11786278 -0.1493677 0.038232606 0.041919768
0.0117430175 -0.103804104 -0.10570606 -0.16010915 0.15459532 0.06244514 0.03432305 -0.09015804
-0.07861383 0.057771053 0.08392458 -0.114583045 0.020470502 -0.00040921045 -0.13223083 0.064834364
0.083527006 -0.027333967 -0.17123163 -0.1730701 -0.066612154 -0.06012018 0.08620151 -0.097856544
0.058989484 -0.080366395 -0.048567753 -0.09068458 0.075822726 -0.13614158 -0.13107464 -0.16944428
0.0027228892 0.050785154 -0.097527914 0.030030712 -0.023979034 -0.08762293 0.108898364 -0.10018403
0.09589102 0.0025118205 0.003336653 -0.09223535 -0.077708386 -0.043231882

linear_relu_stack.8.bias f4 [2]
00000000: c9f8 97bd 6423 23be
-0.07420499 -0.15931469
