fnapprox.pth (torch, 16774 bytes, 10 tensors)

linear_relu_stack.0.weight f4 [31, 6]
0	0xbd4e4fb7	-0.05036899
1	0x3e33a0e0	0.17541838
2	0x3d09e6a8	0.033667237
3	0x3f379a91	0.71720225
4	0x3d725724	0.059165135
5	0xbc9e9975	-0.019360283
6	0x3d11753b	0.03551219
7	0x3dfebcc5	0.12438349
8	0x3a8ac137	0.0010586147
9	0x3f82848e	1.0196702
10	0xbc8f7edc	-0.017516546
11	0x3c9b4207	0.018952383
12	0xbe31b011	-0.1735232
13	0xbe531451	-0.20613219
14	0xbe63c44f	-0.22242855
15	0x3f0fe90d	0.5621498
16	0xbe66b35d	-0.22529359
17	0x3de516ec	0.111860126
18	0x3b41510d	0.0029497773
19	0xbb462758	-0.0030235853
20	0xbb6691c4	-0.0035182098
21	0x3f7ad841	0.9798623
22	0xbae083ae	-0.0017129087
23	0x3ba96740	0.005169779
24	0x3c07971f	0.008275776
25	0x3f0ee822	0.55822957
26	0xbd3c0e4c	-0.045912072
27	0x3f17d66a	0.59311545
28	0xbbcdda27	-0.0062821093
29	0xbbf600de	-0.0075074276
30	0xba03eb77	-0.00050323404
31	0x3d3ab320	0.045580983
32	0x3a261acd	0.0006336391
33	0x3f7d47e2	0.9893781
34	0xba9b4aa2	-0.0011847804
35	0x39be20d1	0.00036264074
36	0xbc26545d	-0.01015195
37	0xbd9dc0f5	-0.07702819
38	0x3b87ca60	0.004143998
39	0x3f6df85f	0.9295711
40	0x3b852515	0.0040632584
41	0xbb8fe8d9	-0.0043917713
42	0xbb43c3a1	-0.0029871243
43	0x3d772886	0.06034138
44	0xbbc93594	-0.00614042
45	0x3f7dacfe	0.9909209
46	0xbabc9fa8	-0.0014390843
47	0xbb568d63	-0.0032738082
48	0xbad62cac	-0.0016340218
49	0xbd87ce05	-0.06631092
50	0x39c03e33	0.00036667436
51	0x3f745c17	0.9545302
52	0xbbc38a71	-0.0059674312
53	0xbb1094c6	-0.0022061332
54	0x3adf2604	0.0017024879
55	0xbd3fdd38	-0.04684183
56	0xbb6493e5	-0.003487819
57	0x3f34ada3	0.7057745
58	0xba0b8319	-0.0005321964
59	0x3a2b101c	0.0006525533
60	0x3b145cc8	0.002263831
61	0xba23148a	-0.0006221017
62	0x3c266243	0.010155263
63	0x3f3570f8	0.708755
64	0x3a652ffc	0.0008742807
65	0xba185861	-0.00058115093
66	0xb866292f	-5.487463e-05
67	0xbcc2a698	-0.023761079
68	0x3a0b45d7	0.0005312836
69	0x3f814394	1.0098748
70	0xbce75e84	-0.02824331
71	0x3a249429	0.0006278181
72	0xbc9b0efc	-0.018928044
73	0x3d47a102	0.048737533
74	0x3efbcf17	0.49181435
75	0x3ed08577	0.40726826
76	0x3dbfa894	0.093583256
77	0xbe1c020d	-0.15235157
78	0x3e13b811	0.14425685
79	0xbe66477a	-0.22488204
80	0x3c8151e9	0.015786128
81	0x3efbcd1a	0.49179918
82	0x3e889fad	0.26684323
83	0x3be799da	0.007067901
84	0xba2af399	-0.0006521284
85	0x3c47b98e	0.012190236
86	0x3ab321a1	0.0013666638
87	0x3f872dc6	1.0560844
88	0x39d318e3	0.00040263598
89	0xb9e349c7	-0.00043351782
90	0xbd7a56db	-0.061117988
91	0xbddd892f	-0.10817181
92	0x3d47fb07	0.048823383
93	0x3f364fce	0.7121552
94	0x3c8bc2f0	0.017060727
95	0x3cb891bb	0.022530427
96	0x39daa273	0.00041701234
97	0xbae552ac	-0.0017495952
98	0x3b37ead1	0.0028063545
99	0x3f721b93	0.94573325
100	0x3a9de71b	0.0012047024
101	0xb95242f3	-0.00020052101
102	0x3dad7ae4	0.08470705
103	0xbe767c95	-0.24070962
104	0x3e27901a	0.16363564
105	0x3f098eef	0.53733724
106	0xbdbb0533	-0.09131851
107	0x3bd17626	0.006392258
108	0x3d45a517	0.048253145
109	0xbd5fdce3	-0.054654013
110	0xbd06ea89	-0.032938514
111	0x3f3005d0	0.6875887
112	0xbced13e7	-0.028940154
113	0xbd48df7d	-0.04904126
114	0xb85b29bf	-5.2252548e-05
115	0x3bc6a2be	0.006061881
116	0xbba29d79	-0.00496262
117	0x3f58e885	0.84729797
118	0xb84dda0a	-4.9078873e-05
119	0x393fc1c7	0.00018287367
120	0x3d83e6f2	0.06440534
121	0xbe8f50f1	-0.2799144
122	0xbe14f6c3	-0.14547257
123	0x3ee38909	0.44440487
124	0xbd8bbddf	-0.068233244
125	0x3db953b7	0.090491705
126	0xbd6adb8c	-0.057338282
127	0xbe84ce20	-0.2593851
128	0xbe380e0d	-0.1797411
129	0x3f18cc79	0.59687
130	0x3e0bdd0c	0.13658541
131	0xbe841b5f	-0.25802132
132	0xbce94938	-0.028477296
133	0x3e7e6d19	0.24846305
134	0xbe95720d	-0.29188576
135	0x3ee8d5ab	0.45475516
136	0xbe8f1d45	-0.27952018
137	0xbd359642	-0.04433275
138	0xb8b8ed8f	-8.8180524e-05
139	0xbc45b75f	-0.012067645
140	0xbcc5c145	-0.02414001
141	0x3f7a57b6	0.97790086
142	0xbb4a41b1	-0.003086191
143	0x3b235d60	0.0024927482
144	0x3a235048	0.00062299194
145	0x3c727f7b	0.0148009015
146	0xb9f15f7a	-0.00046038238
147	0x3f4a3727	0.78990406
148	0xba805d6a	-0.0009793465
149	0x3b155ce1	0.0022790956
150	0xbbaf7478	-0.0053544603
151	0xbcb8fd57	-0.02258174
152	0x3e134bc9	0.14384378
153	0x3f36fa37	0.7147555
154	0xbd2dd27b	-0.042437058
155	0x3c857bee	0.016294446
156	0x3a249b7f	0.0006279274
157	0xbca38744	-0.01996196
158	0xbac8ab50	-0.0015309844
159	0x3f7c77b1	0.98620135
160	0x3cdb7e14	0.026793517
161	0xba20ee4c	-0.00061390246
162	0x381dbc72	3.760722e-05
163	0xbcdcf72d	-0.026973331
164	0xba230f92	-0.00062202767
165	0x3f19c7b7	0.60070366
166	0x39bb1bf8	0.00035688258
167	0x3907cd8e	0.00012951178
168	0x3d17a081	0.037018303
169	0x3de4ecf4	0.11178008
170	0xbe99c8e4	-0.3003608
171	0x3ee41dae	0.44553894
172	0x3e1854b5	0.14876063
173	0x3e02bf4b	0.12768285
174	0xb8aa2533	-8.1131606e-05
175	0x3be0be49	0.0068586213
176	0xbb44cc2c	-0.0030028922
177	0x3f63686a	0.888312
178	0xb881e51b	-6.1938736e-05
179	0xb8284e94	-4.0127503e-05
180	0xbbfce8e4	-0.0077181924
181	0x3e6cdc2b	0.23130862
182	0x3e95c485	0.29251495
183	0x3efd517b	0.49476227
184	0x3d5c7787	0.053824928
185	0x3e315d77	0.1732081

linear_relu_stack.0.bias f4 [31]
0	0x3f571ed1	0.840314
1	0x3f5daa98	0.8658843
2	0x3f5ce2c0	0.86283493
3	0xbe0d9805	-0.13827522
4	0x3f204d78	0.6261821
5	0xbf1f33d3	-0.6218845
6	0x3f24f59f	0.6443729
7	0x3eb9f4a3	0.36319456
8	0x3eb3ad44	0.3509313
9	0xbe9ccf2f	-0.3062682
10	0xbf14c37b	-0.5811078
11	0xbf224b53	-0.63396186
12	0x3f9b82d4	1.21493
13	0x3f72a527	0.9478325
14	0xbf023a2b	-0.5087001
15	0x3f37e7c8	0.71838045
16	0xbf31db37	-0.6947512
17	0x3f60503f	0.87622446
18	0x3f27a2ab	0.65482587
19	0xbf4fd61a	-0.8118607
20	0x3f31f89b	0.69519967
21	0x3f484b69	0.78240067
22	0x3f94a799	1.1613647
23	0x3d365d83	0.044522773
24	0xbe9dc7c4	-0.30816472
25	0x3f6dd2c6	0.9289974
26	0xbf1e4d63	-0.6183683
27	0xbf0eaa6e	-0.55728805
28	0x3f347497	0.704904
29	0xbf4eef9c	-0.80834365
30	0x3f88a252	1.0674536

linear_relu_stack.2.weight f4 [31, 31]
0	0x3e355ab2	0.17710379
1	0x3e876729	0.26445892
2	0xbd927cc1	-0.07152701
3	0x3f4116f8	0.7542567
4	0xbc66f54b	-0.014096568
5	0x3f42e4c9	0.7613035
6	0x3e156fda	0.14593449
7	0x3ec2cb21	0.380456
8	0x3f05bbf5	0.52239925
9	0x3f1cd850	0.61267567
10	0x3f113729	0.5672479
11	0x3f6f7f68	0.9355378
12	0xbdad814d	-0.08471928
13	0xbd9754e5	-0.07389239
14	0x3f599ab3	0.8500168
15	0x3d92e82c	0.071731895
16	0x3f377db9	0.7167621
17	0xbb8df802	-0.0043325434
18	0x3e72ce0f	0.23711418
19	0x3f5634b5	0.83674175
20	0x3d5ff47c	0.054676518
21	0x3de02e12	0.10946287
22	0xbe5420d5	-0.2071565
23	0x3ed058ac	0.4069265
24	0x3f53b599	0.8269897
25	0x3d7df282	0.06199885
26	0x3f462699	0.77402645
27	0x3f33f7c3	0.7029993
28	0x3e027e88	0.1274358
29	0x3f6e3ad5	0.9305852
30	0xbc9834c4	-0.018579848
31	0x3ec1ad0b	0.37827334
32	0x3f0d10d0	0.5510378
33	0xbcb70cf7	-0.02234505
34	0x3f587741	0.8455697
35	0x3e8d8eb7	0.27647945
36	0x3f3fb7a5	0.74889594
37	0x3f08165d	0.53159124
38	0x3edb25ed	0.42802373
39	0x3efdb3a4	0.49551117
40	0x3f1f9759	0.62340313
41	0x3f5891da	0.8459755
42	0x3f119a30	0.56875896
43	0x3dfee563	0.12446096
44	0x3e0959e1	0.13413192
45	0x3f4f3895	0.8094571
46	0x3ed529f3	0.41633567
47	0x3f51af39	0.81907994
48	0x3e841c16	0.25802678
49	0x3ec1e079	0.37866572
50	0x3f4f0fd2	0.80883515
51	0x3dd34455	0.10315768
52	0x3db531f9	0.08847422
53	0x3e06c550	0.13161206
54	0x3f4a2c85	0.7897418
55	0x3f373755	0.71568805
56	0x3ee75710	0.4518361
57	0x3f6b38f5	0.91883785
58	0x3eed9625	0.46403614
59	0x3de3535b	0.11099883
60	0x3f6e5b39	0.93107945
61	0xbd94a8b0	-0.07258737
62	0xbe20951d	-0.15681882
63	0x3e6b062b	0.22951572
64	0xbe6b18ff	-0.22958754
65	0x3ea77973	0.32709846
66	0xbd1f155e	-0.038838737
67	0x3f4e59a4	0.8060553
68	0x3e456f51	0.19280745
69	0x3d7fa4bf	0.062412973
70	0x3d955705	0.07291988
71	0x3ec01d7a	0.3752249
72	0x3f0f58b0	0.559947
73	0x3f27a349	0.6548353
74	0xbedb7722	-0.4286433
75	0xbe54d7f7	-0.20785509
76	0x3f1f6752	0.6226703
77	0xbe07788e	-0.13229582
78	0x3f4bb062	0.79566014
79	0xbe442f50	-0.19158673
80	0xbe33a829	-0.17544617
81	0x3f8e76f0	1.1130047
82	0xbea53de9	-0.32273796
83	0xbe8c2427	-0.27371332
84	0xbec8c2a4	-0.39211
85	0x3ea8732a	0.32900363
86	0x3eea4448	0.4575522
87	0x3cd9674e	0.026538517
88	0x3f68d143	0.9094431
89	0x3f3ef83f	0.74597543
90	0xbed249b2	-0.4107185
91	0x3f57b332	0.84257805
92	0xbe291277	-0.1651095
93	0x3e6b988d	0.23007412
94	0x3eb0d2e3	0.34535894
95	0x3e36014f	0.17773937
96	0x3f3825f1	0.71932894
97	0x3e9858e2	0.29755312
98	0x3f5bdeea	0.85887015
99	0x3ed78649	0.4209464
100	0x3e912e3a	0.2835558
101	0x3f02ef07	0.51145977
102	0x3f2a9cb0	0.66645336
103	0x3f2d8f9f	0.67797273
104	0x3f6ec1c6	0.93264425
105	0xbecb74c1	-0.39737514
106	0xbcf16d3b	-0.02947103
107	0x3f5c4f7b	0.8605878
108	0x3dffeb49	0.12496049
109	0x3f4e348b	0.80548924
110	0x3d6b2ef6	0.057417832
111	0x3e44ecea	0.19231
112	0x3f8e3bab	1.1111959
113	0x3cfbb252	0.030724678
114	0x3e015358	0.1262945
115	0xbe612730	-0.21987605
116	0x3f2623d5	0.64898425
117	0x3f51a6e2	0.8189527
118	0x3dcf0a80	0.101094246
119	0x3f2c90f8	0.67408705
120	0x3f163f04	0.58689904
121	0x3e1a89e1	0.15091659
122	0x3f5b971d	0.85777456
123	0xbdf84053	-0.12121644
124	0x3e145aee	0.14487812
125	0x3d1efeb5	0.038817126
126	0x3c2aebf2	0.01043223
127	0x3ee1f93d	0.44135466
128	0x3d885261	0.066563375
129	0x3f710579	0.94148976
130	0x3e5937d6	0.21212706
131	0x3e1fe80b	0.15615861
132	0x3eb8efce	0.36120456
133	0x3f28ab10	0.6588602
134	0x3f15d6af	0.58530706
135	0x3f65876c	0.8965976
136	0xbedab15c	-0.4271344
137	0xbe17f441	-0.14839269
138	0x3f366de6	0.7126144
139	0x3bea31a2	0.00714703
140	0x3f7de497	0.99176925
141	0xbe31ea25	-0.17374475
142	0xbb2fe8b6	-0.0026841587
143	0x3f8f30f6	1.1186817
144	0xbea30157	-0.3183696
145	0xbe0f0e5d	-0.13970323
146	0xbe7a844a	-0.24464527
147	0x3e7463b9	0.23866166
148	0x3f02a4ed	0.51032907
149	0xbdaf0433	-0.08545723
150	0x3f44268f	0.76621336
151	0x3f163be3	0.5868513
152	0xbd984913	-0.07435813
153	0x3f84ae0e	1.0365617
154	0xbeb3ad91	-0.35093358
155	0x3ec1cbf6	0.37850922
156	0x3eb98996	0.36237782
157	0x3da701e1	0.08154655
158	0x3f2964e2	0.6616956
159	0x3da38c37	0.07985728
160	0x3f5687fd	0.8380125
161	0x3f02fe45	0.51169235
162	0x3f00e409	0.50347954
163	0x3f1d0d97	0.6134886
164	0x3eebca39	0.4605272
165	0x3f58d83c	0.8470495
166	0x3f1f731a	0.62285006
167	0xbd32073d	-0.043463934
168	0x3e22d713	0.15902357
169	0x3f2fc320	0.6865711
170	0x3e8f74ee	0.28018898
171	0x3f30f465	0.69122916
172	0xbd4cb54c	-0.049977586
173	0x3e4b2f50	0.19842267
174	0x3f65e76c	0.89806247
175	0xbcb1dc58	-0.021711513
176	0x3dc12473	0.0943078
177	0x3d9768ef	0.07393061
178	0x3ef6827e	0.48146433
179	0x3f171c4a	0.5902754
180	0x3e0112d6	0.12604842
181	0x3f51421d	0.81741506
182	0x3ef9d707	0.48796865
183	0xbdae31dc	-0.08505604
184	0x3f5ea9a8	0.86977625
185	0xbe181a67	-0.14853822
186	0xbe0f9d3d	-0.14024825
187	0xbdc53d8d	-0.096308805
188	0xbeacc6f4	-0.3374554
189	0x3f0bdd89	0.5463491
190	0xbe88f19c	-0.26746833
191	0x3f687b4b	0.9081313
192	0xbd94ac9d	-0.07259486
193	0xbe139469	-0.14412083
194	0x3c54762d	0.012967628
195	0x3f297bde	0.6620463
196	0x3f2d0534	0.67586064
197	0x3f7aab31	0.9791747
198	0xbeeaed90	-0.4588437
199	0xbf0c7ef1	-0.548812
200	0x3f48084c	0.7813766
201	0xbe9d87d1	-0.30767682
202	0x3f811c6f	1.0086802
203	0xbdd7b230	-0.105320334
204	0xbdfc6df9	-0.12325663
205	0x3f9d7368	1.2300844
206	0xbf0e724a	-0.5564314
207	0xbeba1080	-0.36340714
208	0xbf152032	-0.5825225
209	0x3eb0ddc8	0.34544206
210	0x3f050a79	0.51969105
211	0xbe6f0272	-0.23340777
212	0x3f833b95	1.0252558
213	0x3f584e8e	0.84494865
214	0xbe20fe3d	-0.15721984
215	0x3f79385e	0.97351635
216	0xbeec61d3	-0.46168384
217	0x3d8967d5	0.067092575
218	0x3eae0b89	0.33993176
219	0x3be438e3	0.0069647892
220	0x3f07ef68	0.5309968
221	0x3dc7dbb4	0.09758702
222	0x3f4570d0	0.77125263
223	0x3ecea4b7	0.40360042
224	0x3eb300ae	0.34961456
225	0x3f0f7463	0.5603697
226	0x3eea6f9f	0.45788285
227	0x3f52474d	0.82140046
228	0x3f31bc58	0.69428015
229	0x3cec493c	0.028843515
230	0xbdb9c910	-0.09071553
231	0x3f46f8e7	0.77723545
232	0x3dae66b7	0.08515685
233	0x3f7bbf22	0.9833852
234	0x3dc9e8e6	0.09858875
235	0xbb949880	-0.004534781
236	0x3f72f286	0.9490131
237	0xbe298dc4	-0.16557986
238	0xbd91f66e	-0.07127081
239	0xbd40747f	-0.0469861
240	0x3ea9b35f	0.33144662
241	0x3f2de404	0.6792605
242	0x3cf48d7c	0.029852621
243	0x3f37dd89	0.7182241
244	0x3f328213	0.6972973
245	0xbe02fd78	-0.12792003
246	0x3f663313	0.89921683
247	0x3d4325a9	0.047643337
248	0x3f83cd2e	1.0296991
249	0x3f7f5eaa	0.9975382
250	0x3f321d27	0.6957573
251	0xbf1817e7	-0.5941147
252	0x3f3b29f9	0.7311092
253	0xbf89b8bd	-1.0759503
254	0x3f289631	0.65854174
255	0x3f31ff7b	0.6953046

linear_relu_stack.2.bias f4 [31]
0	0xbec7f73a	-0.39055806
1	0xbe8c7056	-0.27429456
2	0xbe8e5515	-0.27799287
3	0xbebbb271	-0.36659577
4	0xbe4139da	-0.18869725
5	0xbe437f9f	-0.19091652
6	0xbf2c90cb	-0.67408437
7	0xbe6d22b0	-0.23157763
8	0x3f566a89	0.8375631
9	0xbf1a26da	-0.6021553
10	0xbe648185	-0.22315033
11	0x3f66b338	0.90117216
12	0xbf068d98	-0.52559805
13	0xbed26742	-0.41094404
14	0xbe3c8bde	-0.1841273
15	0xbe9345db	-0.28764233
16	0xbcd7671c	-0.026294284
17	0x3ca906b4	0.02063308
18	0x3d1601e2	0.03662289
19	0xbf20ec10	-0.628602
20	0xbf1b5942	-0.6068307
21	0xbefd4ddd	-0.49473467
22	0xbe774b27	-0.24149762
23	0xbf1a364a	-0.6023909
24	0x3f70db36	0.9408449
25	0xbecb16df	-0.39665887
26	0xbe3dc2c7	-0.18531333
27	0xbeb0c0a2	-0.34521967
28	0x3f6ae340	0.91753006
29	0xbf21e9e3	-0.6324751
30	0xbe9a4b57	-0.30135605

linear_relu_stack.4.weight f4 [31, 31]
0	0x3f198a22	0.599764
1	0x3f2c484c	0.67297816
2	0x3f5e60a4	0.8686621
3	0x3f055c9a	0.52094424
4	0x3f35692b	0.708636
5	0x3ef9b10a	0.48767883
6	0x3ff386ab	1.9025472
7	0x3f3e2137	0.7426943
8	0xbfa461cb	-1.2842344
9	0x3f92d099	1.1469909
10	0x3f0c3e37	0.5478243
11	0xbf6f4ee1	-0.93479735
12	0x3f84ad17	1.0365323
13	0x3f367746	0.71275747
14	0x3f05f96e	0.52333724
15	0x3f05448f	0.5205774
16	0x3f283c1c	0.6571672
17	0x3f283652	0.65707886
18	0x3f33f234	0.7029145
19	0x3faf2b87	1.3685158
20	0x3f917435	1.1363589
21	0x3f474fb1	0.77855974
22	0x3f4092e1	0.7522412
23	0x3f64ea33	0.8941986
24	0xbf80a616	-1.0050685
25	0x3f44b45f	0.76837724
26	0x3f1c55ce	0.6106843
27	0x3f281aeb	0.65666074
28	0xbf854d01	-1.0414125
29	0x3fa39666	1.2780273
30	0x3f1cfb0b	0.6132056
31	0x3f14d2a8	0.58133936
32	0x3f4ca5f8	0.7994075
33	0x3f0d0469	0.55084854
34	0x3f28ec5a	0.65985644
35	0x3ef22984	0.472973
36	0x3f4e1c64	0.8051207
37	0x3fdb912f	1.7153682
38	0x3f296463	0.661688
39	0xbf64ac4b	-0.893254
40	0x3f99f744	1.2028584
41	0x3f37d370	0.71807003
42	0xbef52bbf	-0.47884938
43	0x3f8be3c3	1.0928882
44	0x3f126f4c	0.57201076
45	0x3f1ec8c5	0.620251
46	0x3ef6a413	0.48172054
47	0x3f23c308	0.6396947
48	0x3f08c31f	0.5342273
49	0x3f1e108f	0.61744016
50	0x3f9ee075	1.2412249
51	0x3f8f370f	1.1188678
52	0x3f452230	0.7700529
53	0x3f0b759f	0.5447635
54	0x3f154c5e	0.5831965
55	0xbf2dc478	-0.6787791
56	0x3f46d2fc	0.77665687
57	0x3f4ec635	0.8077119
58	0x3f0b5685	0.54428893
59	0xbf0ea5ad	-0.5572155
60	0x3f808bd2	1.004267
61	0x3f4acf09	0.7922216
62	0xbe46042d	-0.1933753
63	0x3eb5e8d6	0.35529202
64	0x3d47cc40	0.048778772
65	0xbe848a2b	-0.25886664
66	0xbefd9d5b	-0.49534115
67	0x3cc9b24b	0.02462115
68	0xbf6a8812	-0.91613877
69	0x3d52276c	0.051307127
70	0x3f869071	1.051283
71	0xbf810979	-1.0081016
72	0x3ed3ee59	0.41392782
73	0x3fa0d9d1	1.2566472
74	0xbf3fbc5b	-0.7489678
75	0xbf020ce6	-0.5080093
76	0x3df37be0	0.11888862
77	0x3e999a11	0.30000356
78	0x3e595750	0.21224713
79	0x3f037afe	0.51359546
80	0x3ec6d060	0.38830853
81	0xbf6163b0	-0.88042736
82	0xbe9ece81	-0.31016925
83	0x3ed0051b	0.40628895
84	0x3e60eabe	0.21964547
85	0x3d192a5b	0.03739391
86	0x3f1e61aa	0.61867774
87	0x3d4597c7	0.04824045
88	0xbe83ae22	-0.2571879
89	0x3eab9431	0.335115
90	0x3f5e1fdc	0.86767364
91	0xbf1a488a	-0.60266936
92	0xbd21f114	-0.03953655
93	0x3d91f299	0.0712635
94	0xbe2d83ee	-0.16944858
95	0xbd039d0e	-0.0321322
96	0xbd0a2356	-0.033725105
97	0xbe10b1a4	-0.14130265
98	0xbdd76bf0	-0.10518634
99	0xbdd2bff8	-0.102905214
100	0x3db5f87f	0.088852875
101	0x3e03cb1c	0.12870449
102	0x3e062e96	0.13103709
103	0xbdd043ea	-0.101692036
104	0xbe281152	-0.16412857
105	0xbcac49bf	-0.021031259
106	0xbdf8dcd4	-0.121514946
107	0x3e0feb55	0.14054616
108	0x3def1ef1	0.116758235
109	0x3d5c6f5f	0.05381715
110	0x3e07c49f	0.13258599
111	0x3d83b479	0.06430907
112	0xbd896897	-0.06709402
113	0x3d56f404	0.052478805
114	0xbdcc28dc	-0.09968731
115	0xbe198cfc	-0.14995188
116	0xbde1c4d1	-0.11023868
117	0xbd8817a4	-0.06645134
118	0xbe1da1ad	-0.15393706
119	0xbd596619	-0.053075884
120	0xbe3aca9b	-0.1824135
121	0xbde18275	-0.11011211
122	0xbe1abf76	-0.15112099
123	0x3ddac42e	0.106819496
124	0x3f38ac18	0.72137594
125	0x3f87877b	1.058822
126	0x3f0b033c	0.5430181
127	0x3f70be31	0.9404021
128	0x3f399520	0.7249317
129	0x3f562ffc	0.8366697
130	0x3fa582fd	1.29306
131	0x3f5e963d	0.86947995
132	0xbe12c2da	-0.14332142
133	0x3f69201f	0.9106464
134	0x3f21ef45	0.6325572
135	0x3d773864	0.060356513
136	0x3f77ce70	0.96799374
137	0x3f4a0bb6	0.7892412
138	0x3f841a9b	1.0320619
139	0x3f824722	1.0177958
140	0x3f723625	0.9461387
141	0x3f87e855	1.0617777
142	0x3f820bf4	1.0159898
143	0x3f80edba	1.0072548
144	0x3f5d3a80	0.8641739
145	0x3e7dc8c9	0.24783625
146	0x3f1d16e3	0.6136305
147	0x3f0923ce	0.5357026
148	0xbd63ef26	-0.05564799
149	0x3e9eff55	0.31054178
150	0x3f3c213c	0.7348821
151	0x3f7529ff	0.95767206
152	0xbb0d22aa	-0.0021535554
153	0x3f5ece42	0.87033474
154	0x3f596498	0.8491912
155	0x3f446f22	0.76732075
156	0x3f106a97	0.56412643
157	0x3ed7028e	0.41994137
158	0x3f2d7fe3	0.67773265
159	0x3f719a42	0.94376004
160	0x3f16b31a	0.5886704
161	0x3fcc55ac	1.5963645
162	0x3f10cf65	0.5656646
163	0xbf866945	-1.0500876
164	0x3fa7f290	1.3120899
165	0x3f349825	0.70544654
166	0xbf85e864	-1.0461545
167	0x3f817bc8	1.01159
168	0x3f1ff2ec	0.62480044
169	0x3f1e289a	0.61780703
170	0x3eff0c19	0.49813917
171	0x3f2106a1	0.6290074
172	0x3f367fd4	0.712888
173	0x3f15c8b0	0.5850935
174	0x3f8f6ee9	1.1205722
175	0x3f56dde5	0.83932334
176	0x3f1baf20	0.60814095
177	0x3f3b3a49	0.7313581
178	0x3f2f47f0	0.6846914
179	0xbf72b149	-0.94801766
180	0x3f028770	0.5098791
181	0x3f5fa904	0.8736727
182	0x3f13e637	0.57773155
183	0xbf7d4a43	-0.9894144
184	0x3f906147	1.1279687
185	0x3f07b384	0.53008294
186	0x3f45b2ed	0.77226144
187	0x3f4233a3	0.7586004
188	0x3f1df5da	0.61703265
189	0x3f2ad80f	0.6673593
190	0x3f28fcdb	0.66010827
191	0x3f55e7c0	0.8355675
192	0x3fe337a4	1.7751355
193	0x3f4fb4e6	0.81135404
194	0xbedba867	-0.42901918
195	0x3fa97c67	1.324109
196	0x3f438f24	0.7639029
197	0xbe04b8bb	-0.12961094
198	0x3f78a59c	0.971277
199	0x3f025e8a	0.50925505
200	0x3f4d972e	0.80308807
201	0x3f40b394	0.75274014
202	0x3f41a657	0.7564444
203	0x3f6b7836	0.919803
204	0x3f3ec8bb	0.7452504
205	0x3fa2b69a	1.2711976
206	0x3f944b45	1.158547
207	0x3f7633fe	0.96173084
208	0x3f1723cf	0.59039015
209	0x3f4c54e8	0.79817057
210	0xbf169f96	-0.5883726
211	0x3f5cd07d	0.8625563
212	0x3f1f4b37	0.62224144
213	0x3f196423	0.5991842
214	0xbf055bf7	-0.5209345
215	0x3f956785	1.1672217
216	0x3f11bd08	0.56929064
217	0xbe0639bc	-0.13107961
218	0x3d91aa70	0.071125865
219	0x3c1ab020	0.009441406
220	0xbb9260a0	-0.004467085
221	0xbe0bfb09	-0.13669981
222	0xbdd890fb	-0.10574528
223	0xbdb1940e	-0.08670817
224	0xbd0087f0	-0.03137964
225	0xbd016f10	-0.031600058
226	0x3b513640	0.0031923205
227	0x3dd16010	0.102234006
228	0x3da823a4	0.08209923
229	0xbdfd9574	-0.123820215
230	0x3dc6411c	0.096803874
231	0xbde39f62	-0.11114384
232	0xbcf9e220	-0.030503333
233	0xbab69c80	-0.0013932139
234	0xbdf47284	-0.119359046
235	0x3d5147d0	0.051093876
236	0xbe14979d	-0.14510961
237	0xbe0d0b33	-0.13773803
238	0xbe323962	-0.17404702
239	0x3deedcf0	0.11663234
240	0x3d9f1b3c	0.077688664
241	0xbe07b7aa	-0.13253656
242	0xbdee3bd5	-0.11632506
243	0xbd0ac718	-0.033881277
244	0xbd337dbc	-0.04382108
245	0xbe24fde3	-0.16112475
246	0xbd89b303	-0.06723597
247	0xbc1b1520	-0.009465486
248	0x3f1acf93	0.60472983
249	0x3f261a8d	0.64884263
250	0x3f5cafdc	0.8620584
251	0x3f272e2d	0.65304834
252	0x3f35805c	0.70898986
253	0x3ebe143d	0.37124816
254	0x3ffdc094	1.9824395
255	0x3f5c807f	0.8613357

linear_relu_stack.4.bias f4 [31]
0	0xbee72234	-0.45143282
1	0x3b068ad1	0.0020529518
2	0x3ebcdac8	0.36885667
3	0x3c2948bc	0.010332283
4	0x3ee9cf0d	0.4566578
5	0xbed6a3ef	-0.41921946
6	0xbd1b44df	-0.037907477
7	0xbe18c8db	-0.1492037
8	0xbf2c6430	-0.67340374
9	0xbf13b9e3	-0.57705516
10	0xbf2eb83c	-0.6824987
11	0xbe1d4a59	-0.15360393
12	0xbde9a160	-0.11407733
13	0xbe47f7c3	-0.19528107
14	0x3e0623a4	0.13099533
15	0xbf2979cd	-0.6620148
16	0x3d5d72ba	0.05406449
17	0x3e445c83	0.19175915
18	0xbd401d12	-0.046902724
19	0xbf2eaf9c	-0.6823671
20	0xbe81742a	-0.2528394
21	0xbd65687d	-0.05600785
22	0xbec8668b	-0.39140734
23	0x3e52e21a	0.20594063
24	0x3cd05cb2	0.025434826
25	0xbf1487c2	-0.5801965
26	0xbf0e6965	-0.5562957
27	0xbec2d97d	-0.38056555
28	0xbf077030	-0.5290556
29	0xbe8ba6e2	-0.2727576
30	0xbd8b9949	-0.06816346

linear_relu_stack.6.weight f4 [31, 31]
0	0xbdd650e5	-0.10464648
1	0xbdf40628	-0.11915237
2	0xbdcac9a0	-0.09901738
3	0xbe184e0a	-0.1487352
4	0x3c559a2c	0.013037246
5	0x3d95b35a	0.07309599
6	0xbdcb6bc4	-0.09932664
7	0xbd881a8e	-0.0664569
8	0xbd742994	-0.059609964
9	0x3e1371cb	0.14398877
10	0xbe1e855c	-0.1548056
11	0x3e1179de	0.14206645
12	0xbd6ad492	-0.05733163
13	0xbdf892ef	-0.121374
14	0xbe0e06b4	-0.13869745
15	0xbd95d9f4	-0.07316962
16	0x3e153701	0.14571764
17	0xbe220323	-0.15821509
18	0xbdd85469	-0.10562975
19	0xbda1e3a8	-0.0790475
20	0xbe335424	-0.17512566
21	0xbe06779b	-0.13131563
22	0xbdcaf284	-0.099095374
23	0x3e119016	0.1421512
24	0xbe2142eb	-0.15748183
25	0x3dde1d93	0.108454846
26	0xbd9df6c3	-0.07713082
27	0x3c171e36	0.009223511
28	0x3d477622	0.048696645
29	0x3e10fb84	0.14158446
30	0xbe11e34e	-0.14246866
31	0x3f8bfd29	1.0936633
32	0x3f4682b2	0.77543175
33	0xbf3b3152	-0.7312213
34	0xbe0165e2	-0.12636521
35	0x3f4dcf44	0.8039439
36	0x3f73ffc3	0.95312136
37	0x3f0fe5e5	0.56210166
38	0xbd8246c6	-0.06361155
39	0x3f992eb0	1.1967373
40	0x3f95fce0	1.1717796
41	0x3f84620e	1.0342424
42	0x3dc3261b	0.095287524
43	0xbdfd1204	-0.12356952
44	0x3f532aac	0.8248699
45	0x3f0d9900	0.55311584
46	0x3f9cf5b9	1.2262489
47	0x3d5024da	0.050816394
48	0x3f3aa90f	0.7291421
49	0x3f2d4db0	0.67696667
50	0x3fbb0a14	1.4612451
51	0x3f407ba3	0.75188655
52	0x3f24c318	0.6436019
53	0x3f82fe5f	1.0233878
54	0xbf3688e9	-0.7130266
55	0xbf02b41e	-0.51056087
56	0x3f92e1b9	1.1475135
57	0x3f9bc797	1.2170285
58	0x3f6e9fea	0.9321276
59	0x3fa295ad	1.2701927
60	0x3f6f46c0	0.9346733
61	0xbdb16abe	-0.086629376
62	0x3f89e973	1.0774368
63	0x3f26280c	0.64904857
64	0xbe317d07	-0.1733285
65	0xbe1eb7c9	-0.15499796
66	0x3f71817b	0.94338197
67	0x3f53ce7d	0.8273695
68	0x3f57bdaa	0.8427378
69	0x3e14bb7e	0.14524648
70	0x3f9b26d7	1.2121228
71	0x3f81b379	1.0132896
72	0x3f832058	1.0244246
73	0xbe2fb169	-0.1715752
74	0x3d02ce38	0.031934947
75	0x3f2e5d0d	0.68110734
76	0x3f70ce36	0.9406465
77	0x3f926812	1.143801
78	0xbd6da072	-0.05801434
79	0x3f1f09e4	0.62124467
80	0x3f43f8f7	0.76551765
81	0x3fbc275d	1.4699513
82	0x3f468b2e	0.7755612
83	0x3f691a6b	0.91055936
84	0x3fa99fb5	1.3251864
85	0xbe84357e	-0.2582206
86	0xbe2963a1	-0.16541912
87	0x3f9e1f16	1.2353237
88	0x3f890bf4	1.0706773
89	0x3f8f7b7c	1.120956
90	0x3f9d02ce	1.2266481
91	0x3f8317a0	1.0241585
92	0x3dacae01	0.08431626
93	0x3da605a3	0.08106544
94	0x3e5e9630	0.2173698
95	0x3f356fc0	0.7087364
96	0xbdcde703	-0.100538276
97	0xbd875f1b	-0.06609937
98	0xbe2e0f4f	-0.16998027
99	0x3e2261c7	0.15857612
100	0xbe37d18b	-0.17951028
101	0xbed48cce	-0.41513675
102	0xbec95295	-0.39320818
103	0xbf276be4	-0.65399003
104	0xbd125856	-0.035728775
105	0xbdb1bbf1	-0.08678425
106	0x3e4d7ab0	0.20066333
107	0x3e78fa87	0.24314319
108	0xbf3fd7ed	-0.7493885
109	0xbc81074b	-0.015750548
110	0x3e3a3e31	0.18187787
111	0xbd092cc5	-0.03348996
112	0xbf67a729	-0.9048944
113	0x3e4ec350	0.20191693
114	0xbd7db643	-0.061941396
115	0xbf1b7e8d	-0.60739976
116	0x3f43a33d	0.76420957
117	0xbee57b7c	-0.44820774
118	0xbedcfb68	-0.43160558
119	0xbe9d2929	-0.30695465
120	0xbedf6876	-0.43634385
121	0xbecdb161	-0.40174392
122	0xbe9fcc00	-0.31210327
123	0xbe39bdea	-0.18138853
124	0x3f7d593e	0.989643
125	0x3f40b73c	0.75279593
126	0x3d70b6ee	0.058768205
127	0x3e090b7b	0.13383286
128	0x3f5ea12b	0.8696467
129	0x3f56a78b	0.838494
130	0x3f6d187a	0.92615473
131	0x3d60dd24	0.054898396
132	0x3f844e45	1.0336386
133	0x3f9d8160	1.2305107
134	0x3fa5b66f	1.2946299
135	0x3e218bc2	0.1577597
136	0x3e174966	0.14774093
137	0x3f6f80db	0.9355599
138	0x3f5ad20a	0.85476744
139	0x3fbc39f6	1.4705188
140	0x3e2da7e3	0.16958575
141	0x3f710157	0.9414267
142	0x3f523320	0.8210926
143	0x3fb52c74	1.4154191
144	0x3f3dacd3	0.74091834
145	0x3f407b90	0.7518854
146	0x3f985a8d	1.1902634
147	0x3d3b0fdb	0.045669418
148	0xbd356252	-0.04428322
149	0x3faf359b	1.3688234
150	0x3f9fff63	1.2499813
151	0x3f879603	1.0592655
152	0x3f7c139f	0.9846744
153	0x3f9124b2	1.1339324
154	0xbe0a85c1	-0.13527586
155	0x3f568909	0.8380285
156	0x3f56d88f	0.8392419
157	0xbe8c0150	-0.2734475
158	0xbb7d907b	-0.0038690853
159	0x3f811014	1.0083032
160	0x3f4c725e	0.7986201
161	0x3f332da9	0.69991547
162	0xbdd41d04	-0.10357097
163	0x3f8343bb	1.0255045
164	0x3f5faf43	0.87376803
165	0x3f8f1967	1.1179627
166	0xbd71d132	-0.059037395
167	0xbd4203d4	-0.047366932
168	0x3f5d8f97	0.86547226
169	0x3f5ddc9c	0.8666475
170	0x3f9b3d1f	1.2128028
171	0xbce66c34	-0.028127767
172	0x3f56f4bb	0.8396718
173	0x3f4717f5	0.7777093
174	0x3fd72b86	1.6810157
175	0x3f59f26d	0.8513554
176	0x3f284e75	0.65744716
177	0x3fb259fd	1.3933712
178	0xbda5f374	-0.081030756
179	0x3cc52752	0.024066601
180	0x3f94108c	1.156755
181	0x3fb550fe	1.4165342
182	0x3f9945f5	1.1974474
183	0x3f8781c1	1.0586473
184	0x3f607778	0.87682295
185	0xbe0985b2	-0.13429907
186	0xbc6ef450	-0.014584616
187	0xbdffce2d	-0.12490497
188	0xbdb57bbf	-0.08861493
189	0xbe33d4d0	-0.1756165
190	0xbe2c6dd4	-0.16838771
191	0xbc963ab8	-0.018338546
192	0xbdd50ca2	-0.104028
193	0x3c9130a8	0.017723396
194	0xbe3053f0	-0.1721952
195	0x3d9ff76f	0.07810866
196	0x3e2b398c	0.16721171
197	0xbe212693	-0.15737371
198	0x3cca0140	0.0246588
199	0x3e220dc5	0.15825565
200	0xbe154b4f	-0.14579509
201	0xbdfbcfa8	-0.12295467
202	0xbdd19aa8	-0.102345765
203	0x3e1a107e	0.15045354
204	0x3bb0e5c4	0.005398484
205	0xbd94d393	-0.07266917
206	0xbcfc8dec	-0.030829392
207	0x3d1ec939	0.03876612
208	0xbda8fc6e	-0.08251272
209	0x3b9c270c	0.004765397
210	0x3d9328c1	0.071855076
211	0xbdefb3f4	-0.11704245
212	0xbd20c598	-0.03925094
213	0xbdee95f6	-0.116496965
214	0x3dc66e54	0.09689012
215	0x3d2cd6bb	0.04219697
216	0x3d11f978	0.035638303
217	0xbdd51b81	-0.104056366
218	0xbe377eed	-0.17919512
219	0xbe307217	-0.17231022
220	0xbe116959	-0.14200343
221	0x3bb9b6d3	0.0056675463
222	0xbda10f6b	-0.07864269
223	0x3d8f8940	0.070086
224	0x3d24a28c	0.04019408
225	0xbce11811	-0.027477296
226	0xbca94314	-0.020661868
227	0xbd93e1d9	-0.072208114
228	0xbde32c6c	-0.11092457
229	0xbdaf3e5a	-0.085568145
230	0x3d9cbcfa	0.07653232
231	0xbd3bce53	-0.045851063
232	0xbd63ff7c	-0.05566357
233	0x3e069ac2	0.13144973
234	0xbc86d2e3	-0.01645798
235	0xbe2df472	-0.1698778
236	0xbe06ef0b	-0.13177125
237	0xbd6748c9	-0.056465898
238	0xbe03ac94	-0.12858802
239	0xbd1eecef	-0.038800176
240	0x3e229517	0.15877186
241	0xbdf473bb	-0.11936136
242	0x3d2846fc	0.04108332
243	0xbe036bf6	-0.12834153
244	0xbe208873	-0.15677051
245	0x3e14f995	0.14548333
246	0x3d710a3a	0.058847643
247	0x3cc35d97	0.023848338
248	0x3e06ad8a	0.13152137
249	0x3ec8026e	0.39064354
250	0x3ef1e913	0.47248134
251	0xbe36bb48	-0.1784488
252	0xbde3975e	-0.111128554
253	0x3e6e7dd6	0.2329019
254	0x3ea1bd5c	0.31589782
255	0xbd2ba744	-0.041907564

linear_relu_stack.6.bias f4 [31]
0	0xbc9cb2b5	-0.019128183
1	0xbd86cd03	-0.06582072
2	0xbdb7d8b4	-0.0897688
3	0x3e1660a1	0.14685299
4	0xbf240d83	-0.6408312
5	0xbe9e725c	-0.30946624
6	0xbdc3d2bc	-0.09561679
7	0x3dd9cfaf	0.106353156
8	0x4012c338	2.2931652
9	0xbd232a7c	-0.039835438
10	0xbf20feb1	-0.6288863
11	0xbeb8ba55	-0.3607966
12	0x3f84d1dc	1.0376544
13	0x400d0ba2	2.203835
14	0xbe226959	-0.158605
15	0xbf10e413	-0.56598014
16	0xbf3ef7e8	-0.74597025
17	0x3f142856	0.5787405
18	0x3f1014cd	0.5628174
19	0xbd2c3fc8	-0.042053014
20	0xbfceba42	-1.6150591
21	0xbebd4ad4	-0.36971152
22	0xbdbd933d	-0.09256599
23	0xbf12360d	-0.57113725
24	0xbf1f5a62	-0.6224729
25	0x3db6482c	0.089004844
26	0xbef71262	-0.48256212
27	0xbd7b1e7c	-0.06130837
28	0xbe051fe1	-0.13000442
29	0xbed707fa	-0.41998273
30	0xbe3216f9	-0.17391576

linear_relu_stack.8.weight f4 [2, 31]
0	0xbe32de94	-0.1746772
1	0x3f874cb7	1.0570287
2	0x3f888f1d	1.0668675
3	0xbf8f2097	-1.1181821
4	0x3f80de04	1.0067754
5	0x3f889f87	1.0673684
6	0xbde4c46f	-0.11170279
7	0xbd40ad0c	-0.04704003
8	0xbf93eb55	-1.1556193
9	0x3d60a008	0.054840118
10	0xbf329135	-0.6975282
11	0x3f9216f2	1.1413252
12	0xbf811c5c	-1.008678
13	0xbf80412e	-1.0019891
14	0xbe2eff0d	-0.17089482
15	0x3f793348	0.97343874
16	0x3f86e364	1.0538144
17	0x3f9939f0	1.1970806
18	0xbf8aadb3	-1.0834259
19	0xbdc61854	-0.09672609
20	0x3f8363a9	1.0264789
21	0x3f8efec7	1.1171502
22	0x3f713a6a	0.9422976
23	0x3f9805ea	1.1876805
24	0x3fa97b54	1.3240762
25	0xbdd06137	-0.10174792
26	0x3f8d5b6c	1.1043525
27	0xbd0a1a0c	-0.033716246
28	0xbd5f1404	-0.054462448
29	0x3f83db68	1.0301332
30	0xbb424780	-0.0029644668
31	0x3ddcda52	0.10783829
32	0x3d1708ec	0.036873743
33	0xbd76826e	-0.06018298
34	0x3fb66ae6	1.4251373
35	0x3df7f7a2	0.12107779
36	0x3e0e2ebe	0.13885018
37	0x3e2adbec	0.16685456
38	0xbe20b3c3	-0.15693574
39	0xbf6bba21	-0.92080885
40	0x3e1f15b8	0.15535629
41	0x40296d66	2.6473022
42	0xbd9a52ec	-0.07535347
43	0x3f19eea6	0.60129774
44	0xbec56518	-0.3855369
45	0xbd8a6b66	-0.06758766
46	0xbd601079	-0.05470321
47	0xbe2862de	-0.16443965
48	0xbf45f9d1	-0.77334315
49	0x3f56d965	0.8392547
50	0xbdf8450a	-0.12122543
51	0x3e4c2a0c	0.19937915
52	0x3bee29fd	0.007268189
53	0xbe8c9b27	-0.27462122
54	0xbd0af416	-0.033924185
55	0xbd97fcf8	-0.07421297
56	0xbc51edc2	-0.012813034
57	0x3dc26a2c	0.09492907
58	0x3d22f7b4	0.03978701
59	0xbdd8155e	-0.105509505
60	0x3d1eb177	0.038743462
61	0xbdc48774	-0.09596148

linear_relu_stack.8.bias f4 [2]
0	0xbf9ff05f	-1.249523
1	0xbe4c8d3d	-0.19975753
